# YOLO11n RGBT version 🚀

# Parameters
nc: 1  # number of classes
depth_multiple: 0.33
width_multiple: 0.50
# scales:
#   n: [0.50, 0.25, 1024]
anchors:
  - [10, 13, 16, 30, 33, 23]
  - [30, 61, 62, 45, 59, 119]
  - [116, 90, 156, 198, 373, 326]

# RGBT backbone
backbone:
  # [from, number, module, args]
  - [-1, 1, MultiStreamConv, [64, 6, 2, 2]]         # 0 - P1/2
  - [-1, 1, MultiStreamConv, [128, 3, 2]]           # 1 - P2/4
  - [-1, 2, MultiStreamC3, [256]]      # 2
  - [-1, 1, Fusion, ['concat', 2]]                  # 3 - fuse RGB + thermal stream
  - [-1, 1, Conv, [256, 3, 2]]                       # 4 - P3/8
  - [-1, 2, C3k2, [512, False]]                # 5
  - [-1, 1, Conv, [512, 3, 2]]                       # 6 - P4/16
  - [-1, 2, C3k2, [512, True]]                       # 7
  - [-1, 1, Conv, [1024, 3, 2]]                      # 8 - P5/32
  - [-1, 2, C3k2, [1024, True]]                      # 9
  - [-1, 1, SPPF, [1024, 5]]                         # 10
  - [-1, 2, C2PSA, [1024]]                           # 11

# Head
head:
  - [-1, 1, nn.Upsample, [None, 2, "nearest"]]
  - [[-1, 7], 1, Concat, [1]]          # cat backbone P4
  - [-1, 2, C3k2, [512, False]]        # 14

  - [-1, 1, nn.Upsample, [None, 2, "nearest"]]
  - [[-1, 5], 1, Concat, [1]]          # cat backbone P3
  - [-1, 2, C3k2, [256, False]]        # 17

  - [-1, 1, Conv, [256, 3, 2]]
  - [[-1, 14], 1, Concat, [1]]
  - [-1, 2, C3k2, [512, False]]        # 20

  - [-1, 1, Conv, [512, 3, 2]]
  - [[-1, 11], 1, Concat, [1]]
  - [-1, 2, C3k2, [1024, True]]        # 23

  - [[17, 20, 23], 1, Detect, [nc, anchors]]